trained_weights_dqn.pth (torch, 517093 bytes, 6 tensors)

network.0.weight f4 [256, 2]
0	0x3de67aa4	0.112538606
1	0x40c5e703	6.1844497
2	0xbe29a1a3	-0.16565566
3	0x3f264952	0.6495563
4	0xbe1ea5df	-0.15492962
5	0x3e121cb0	0.14268756
6	0xbeb042a6	-0.3442585
7	0x3ed49e79	0.41527155
8	0x3f1e663a	0.61874735
9	0xbe68068a	-0.22658744
10	0x3f1d5760	0.6146145
11	0x3e07848f	0.13234161
12	0x3eacc967	0.33747408
13	0x40873bdc	4.226057
14	0x3fdd408b	1.7285322
15	0xbff83e10	-1.939394
16	0x3e7abc0b	0.24485795
17	0x40ea8962	7.3292704
18	0xbe9ddbb4	-0.30831683
19	0xbfa0bf19	-1.2558318
20	0xbe287b92	-0.16453388
21	0x3ff48e60	1.9105949
22	0xbe660b04	-0.2246514
23	0xbf720a5a	-0.94547045
24	0xbf1827dd	-0.59435827
25	0xbfc32019	-1.524417
26	0xbe4c760e	-0.1996691
27	0xbed9af13	-0.42516384
28	0x3ef1a2cf	0.47194526
29	0x3f1fc6eb	0.624129
30	0x3e930f12	0.28722435
31	0x4109ef1a	8.620874
32	0xbf744ada	-0.95426714
33	0x40b4ad0b	5.6461234
34	0xbc67e818	-0.014154457
35	0x3e92284e	0.28546375
36	0xbee38caa	-0.44443256
37	0x40f5a5fb	7.6765113
38	0x3d9e4fd3	0.07730069
39	0xbe645ac5	-0.22300251
40	0x3e3d5e5d	0.18493028
41	0xbe23fcbc	-0.1601438
42	0x3eb6129d	0.35561076
43	0xbe083c29	-0.133042
44	0x3eed7b6c	0.46383226
45	0xbd7b7895	-0.061394293
46	0x3dedce85	0.11611656
47	0x40bafddc	5.8434887
48	0x3eb7db1d	0.35909358
49	0xbedcaa16	-0.43098515
50	0xbe8019c7	-0.25019667
51	0xbee4621f	-0.4460611
52	0xbee93086	-0.45544833
53	0xbe5f5aae	-0.21811935
54	0x3e99b38d	0.300198
55	0x3edb3b83	0.4281884
56	0x3e64ff5f	0.22363041
57	0xbc498957	-0.012300811
58	0x3f9262e8	1.1436434
59	0x3fd7f34f	1.6871127
60	0x3d365cc8	0.044522077
61	0xbef71b1f	-0.4826288
62	0x3f6ec4c9	0.9326902
63	0xc060fa21	-3.5152667
64	0x3e83c499	0.2573593
65	0xbf8ad32e	-1.0845697
66	0x3f01fc5e	0.50775707
67	0x410d3bba	8.827082
68	0xbea4e054	-0.322024
69	0xc0108fe6	-2.2587829
70	0x3ed13ba2	0.4086581
71	0x4087926c	4.236624
72	0x3f1fb704	0.62388635
73	0x403cb25c	2.9483862
74	0xbeb0ddbe	-0.34544176
75	0xc0d233c4	-6.568819
76	0x3cd17081	0.025566341
77	0xc10f1b68	-8.944191
78	0x3de86c66	0.113488
79	0x40a6427d	5.1956162
80	0xbe7d1f80	-0.24719048
81	0xc101cbda	-8.112268
82	0xbec91a8c	-0.39278066
83	0x404ab4ec	3.1672926
84	0x3f24e4b2	0.6441146
85	0x40ffa515	7.9889016
86	0x3ecf1a4d	0.40449753
87	0xbf0ca56f	-0.5493993
88	0xbe1aecfe	-0.15129468
89	0xc08bff8f	-4.374946
90	0x3dceed7e	0.10103892
91	0x4105abfc	8.354488
92	0xbf511a03	-0.81680316
93	0xbe13484e	-0.14383051
94	0xbf099ad3	-0.5375187
95	0xbfaec484	-1.3653722
96	0x3eeb6be7	0.4598076
97	0x3ff68e82	1.926224
98	0xbe6a7ef4	-0.22899991
99	0xbfdbf4f6	-1.7184131
100	0xbe0f55df	-0.13997601
101	0x3dffac1c	0.12483999
102	0xbdbf2583	-0.09333327
103	0xbf03663f	-0.5132789
104	0x3c87e02c	0.016586386
105	0xbef74d4a	-0.48301154
106	0xbcf99250	-0.030465275
107	0xc0f14e4c	-7.5408077
108	0xbf08ee55	-0.53488666
109	0xbee5154e	-0.44742817
110	0x3f2d6880	0.6773758
111	0x3df16f71	0.11788834
112	0x3e5f21a7	0.21790181
113	0xbf28d57a	-0.6595074
114	0xbeedc70b	-0.4644092
115	0xbe71036b	-0.2353646
116	0x3de27316	0.11057107
117	0xbf1f4864	-0.62219834
118	0xbe9bfe22	-0.30467325
119	0xbed8bdbd	-0.4233226
120	0x3b006c39	0.0019595756
121	0xbe86b73b	-0.2631167
122	0x3f0237e5	0.5086654
123	0xc08e4754	-4.446207
124	0xbee440ce	-0.44580692
125	0xbfcbe97a	-1.5930626
126	0xbe275195	-0.16339715
127	0xbef6e0e5	-0.48218456
128	0x3f1b4a90	0.6066065
129	0x41110d95	9.065816
130	0xbbcc2ef6	-0.006231184
131	0x40b6f5dd	5.7175126
132	0xbf389f1b	-0.72117776
133	0xc0b9a114	-5.800913
134	0xbe4739e3	-0.19455676
135	0xbe8ac763	-0.27105245
136	0xbf2c6fb1	-0.6735793
137	0xc02f532d	-2.7394516
138	0x3e4f2a8e	0.20231077
139	0xbe1e2b96	-0.15446314
140	0x3f3dca3c	0.7413671
141	0x40ed1dd9	7.4098935
142	0x3f18ef12	0.5973979
143	0xbf8a05c3	-1.0783008
144	0x3cba64d1	0.022753151
145	0xbdfa6fcb	-0.12228354
146	0xbee7dce7	-0.45285723
147	0xc10cce2d	-8.800336
148	0x3f24e6b7	0.6441454
149	0xbf0f88c4	-0.5606806
150	0x3f471c5c	0.7777765
151	0xc095c299	-4.6800046
152	0xbec06c25	-0.37582508
153	0x409479ab	4.639852
154	0x3f321ff4	0.69580007
155	0x411bcfe6	9.738256
156	0xbf707dad	-0.93941766
157	0xc08648fb	-4.1964087
158	0x3e59642b	0.21229617
159	0xbf850193	-1.0391105
160	0x3f2489ad	0.64272577
161	0x3e1f1dc5	0.155387
162	0x3f47f442	0.7810708
163	0xc053f382	-3.3117375
164	0x3e97facb	0.29683527
165	0xbdd940c7	-0.106080584
166	0xbea5dbd4	-0.32394278
167	0x3f1b7c66	0.6073669
168	0x3f793a6e	0.9735478
169	0xc099e6da	-4.80943
170	0xbeb73deb	-0.35789427
171	0xbd0a50ba	-0.033768393
172	0x3f213b21	0.6298085
173	0x3f49d6ea	0.7884356
174	0xbdd484ab	-0.10376867
175	0xbecd2eef	-0.4007487
176	0x3f56d2a5	0.8391517
177	0xc0df8191	-6.984566
178	0x3d99ff1d	0.07519362
179	0x40fec671	7.961724
180	0x3e282adf	0.16422604
181	0x3ebb06b5	0.36528555
182	0x3e034be7	0.12821923
183	0xbe80ee4f	-0.25181815
184	0xbdb502a9	-0.08838398
185	0x40cc215e	6.379073
186	0x3e876049	0.26440647
187	0xbdfe78c6	-0.124253795
188	0xbe3fbc91	-0.18724276
189	0x3d9aecc7	0.07564693
190	0xbdbfee54	-0.09371629
191	0xbe48b2da	-0.19599476
192	0x3eb85d15	0.36008516
193	0x4078162e	3.8763537
194	0xbe046e29	-0.12932648
195	0xbf8862dc	-1.065517
196	0x3daab9f7	0.08336251
197	0xbfa68000	-1.3007812
198	0x3e2e138c	0.16999644
199	0x3e4ae92b	0.19815509
200	0x3f63110d	0.8869789
201	0xc094b79a	-4.6474123
202	0x3eee9ca6	0.46603888
203	0x4087a970	4.2394333
204	0x3f83f339	1.0308601
205	0x406a8ef7	3.664976
206	0x3f47ac1a	0.7799698
207	0x4014886a	2.320826
208	0xbcf9a13c	-0.03047239
209	0xbd51dac4	-0.05123402
210	0x3ee6d7fc	0.45086658
211	0x3ea726fc	0.3264693
212	0xbedd4eaa	-0.43224078
213	0x3e53c1bd	0.20679374
214	0xbe0e714d	-0.13910408
215	0xbc103ac0	-0.00880307
216	0x3dd17c86	0.10228829
217	0xbe3b83cd	-0.18311997
218	0x3f4ac856	0.7921194
219	0x40ae0461	5.4380345
220	0xbeea54e2	-0.45767885
221	0x3f041fab	0.5161082
222	0xbea49ea0	-0.3215227
223	0xbe112747	-0.1417514
224	0xbf5d993e	-0.86561954
225	0x3e115d45	0.14195736
226	0x3f092582	0.5357286
227	0x3e83f1c0	0.25770378
228	0xbe49a154	-0.19690448
229	0xbf62a4ee	-0.8853291
230	0xbf2b1ad3	-0.66837806
231	0xbf8f3df8	-1.1190786
232	0x3eadd11d	0.33948603
233	0x3f18541d	0.59503347
234	0xbf3914bb	-0.7229726
235	0xc0de10da	-6.939557
236	0xbbe2e6b3	-0.006924474
237	0xbf09aa92	-0.53775895
238	0x3f8cbc36	1.0994937
239	0xc01f42da	-2.4884553
240	0x3e85f3c2	0.26162535
241	0xbda34550	-0.07972205
242	0x3eace231	0.3376632
243	0xc00bb1e7	-2.1827333
244	0xbe03f1a7	-0.12885152
245	0xbefed0c1	-0.49768642
246	0x3fa58354	1.2930703
247	0xc02d2776	-2.7055335
248	0xbe573173	-0.21014957
249	0x3edf808a	0.43652755
250	0xbe684a55	-0.22684605
251	0xbf04ca34	-0.5187104
252	0xbdff82c7	-0.12476116
253	0xbeaf7f4f	-0.34276816
254	0xbe205140	-0.15655994
255	0xbf0ad8d0	-0.5423708

network.0.bias f4 [256]
0	0x3dbddd94	0.09270778
1	0xbf0a1838	-0.53943205
2	0xbee513fa	-0.44741803
3	0xbf167f0e	-0.5878762
4	0x3f25f506	0.64827
5	0xbf2b6a17	-0.66958755
6	0x3e8bcd69	0.27305153
7	0x3e97b8ee	0.29633278
8	0xbe4a8154	-0.19775897
9	0x3ea1fac8	0.31636643
10	0xbe719481	-0.23591806
11	0x3e89a232	0.26881558
12	0x3ee65784	0.44988644
13	0xbf1d29ae	-0.61391723
14	0x3e89bdb4	0.26902544
15	0xbe64bacb	-0.22336881
16	0xbf3a79a5	-0.72841865
17	0xbd97f2a8	-0.0741933
18	0xbf00b3fd	-0.5027464
19	0xbeae2a30	-0.34016562
20	0xbdc46ace	-0.09590684
21	0x3f0128df	0.5045299
22	0x3ef93e50	0.48680353
23	0x3c7db91b	0.015486027
24	0xbf2a4118	-0.66505575
25	0xbebf611b	-0.37378773
26	0xbf20a54d	-0.6275223
27	0x3ecd7816	0.4013068
28	0xbedbca03	-0.4292756
29	0x3e951a6c	0.2912172
30	0xbe20b422	-0.15693715
31	0x3d8c90db	0.068635665
32	0x3f17ac67	0.5924744
33	0xbe695b4c	-0.22788733
34	0x3e2ebe9c	0.17064899
35	0x3ed95823	0.42450055
36	0x3ed7dd29	0.4216092
37	0xbefbbdfb	-0.4916838
38	0xbc37d119	-0.011219286
39	0x3db957b2	0.0904993
40	0xbd1e469a	-0.03864155
41	0xbe766fcd	-0.24066086
42	0xbe69d34e	-0.22834513
43	0xbef58db7	-0.47959682
44	0x3d5dfd1a	0.054196455
45	0xbe6e704a	-0.23285022
46	0xbec2d1f5	-0.3805081
47	0x3f1d0ddb	0.61349267
48	0x3f09f485	0.5388873
49	0x3f12574d	0.5716446
50	0xbe41d232	-0.1892784
51	0xbf1bb711	-0.6082621
52	0xbefdfae0	-0.49605465
53	0xbd9c198b	-0.076220594
54	0xbf353d88	-0.70797014
55	0xbec52071	-0.38501313
56	0xbf26a3fc	-0.6509397
57	0xbf2702de	-0.6523875
58	0xbed8567e	-0.42253488
59	0xbf32747a	-0.6970898
60	0xbede394e	-0.43403095
61	0x3e001072	0.12506273
62	0x3ee868df	0.4539251
63	0xbe94d00a	-0.2906497
64	0xbe7cd949	-0.24692263
65	0x3c7af738	0.015317731
66	0xbeb1d3ec	-0.34731996
67	0xbeab2f05	-0.3343431
68	0x3da83ada	0.0821435
69	0xbf1db8f2	-0.6161033
70	0xbe524dcd	-0.20537491
71	0x3f17faed	0.5936726
72	0xbd3749e2	-0.044748195
73	0xbe9c1d9f	-0.3049135
74	0xbed2d91e	-0.41181272
75	0x3e2360cf	0.15954898
76	0xbe471920	-0.19443178
77	0xbe88ebe5	-0.26742473
78	0xbf284f4b	-0.6574599
79	0x3f0fb37a	0.56133235
80	0xbf0a2c06	-0.53973424
81	0x3ed39254	0.41322577
82	0xbeb4e33d	-0.3532962
83	0xbf0f32a7	-0.55936664
84	0x3e85c0af	0.26123568
85	0xbf1f5703	-0.62242144
86	0x3eca1b52	0.3947397
87	0xbe265052	-0.16241577
88	0x3eaa50bb	0.33264717
89	0x3d19e756	0.037574135
90	0xbf2b525f	-0.66922563
91	0xbe8c0949	-0.27350834
92	0xbe7e31aa	-0.24823633
93	0xbf19d23c	-0.6008642
94	0xbee63757	-0.44964096
95	0xbe162d37	-0.14665686
96	0x3ec292f5	0.38002744
97	0x3f251be4	0.6449568
98	0x3ea23903	0.3168412
99	0xbed82e96	-0.42223042
100	0x3ed65450	0.418612
101	0x3ef4af22	0.47789866
102	0x3eca3bdf	0.39498803
103	0x3e93f58a	0.2889827
104	0xbd2b10de	-0.041764133
105	0xbf117c12	-0.5682994
106	0xbf05be03	-0.5224306
107	0x3f1a01e4	0.60159135
108	0xbe3294af	-0.17439531
109	0x3e88b6e4	0.26702034
110	0xbf164e55	-0.58713275
111	0xbeca86ea	-0.39556056
112	0xbeb15719	-0.34636763
113	0xbee0e23c	-0.43922603
114	0xbeb66f7c	-0.3563193
115	0x3d9da69a	0.07697792
116	0xbf3111aa	-0.6916758
117	0xbefad995	-0.48994127
118	0xbeef6207	-0.46754476
119	0x3f030f0c	0.51194835
120	0x3ea88cdf	0.32919976
121	0x3ea691ba	0.32533056
122	0xbe45e587	-0.19325839
123	0xbb26d2dc	-0.0025455272
124	0xbf23af26	-0.6393913
125	0xbebab022	-0.36462504
126	0xbf1e81d9	-0.6191688
127	0xbe614b7a	-0.22001448
128	0x3e4b389b	0.19845812
129	0xbf2997b6	-0.6624712
130	0x3f18692e	0.5953549
131	0x3ebee565	0.3728439
132	0xbf313548	-0.69221926
133	0xbeacebef	-0.33773753
134	0x3e549770	0.20760894
135	0xbe3bf8ac	-0.1835658
136	0xbe5ed948	-0.21762574
137	0xbeb36051	-0.3503442
138	0x3e8e7c48	0.27829194
139	0xbeca6104	-0.39527142
140	0x3ededb97	0.4352691
141	0xbce0a84e	-0.027424004
142	0x3e85d3ca	0.26138145
143	0x3ee7cf22	0.45275217
144	0xbe65a8bb	-0.22427647
145	0xbece1fd2	-0.40258652
146	0xbeca82a5	-0.395528
147	0x3edfeaaf	0.43733737
148	0xbf0c4c00	-0.54803467
149	0x3e7f3639	0.24923028
150	0xbf31e77d	-0.6949385
151	0x3e88dc8d	0.26730767
152	0x3d388934	0.045052722
153	0xbdfa3f57	-0.12219112
154	0x3dfb7d81	0.12279797
155	0xbe43d6d0	-0.19124913
156	0x3dae27c7	0.08503681
157	0xbf0f4c72	-0.5597602
158	0xbf168215	-0.5879224
159	0x3ede2e31	0.43394616
160	0x3f2149db	0.6300332
161	0xbefb9aa8	-0.4914143
162	0xbf0b12d7	-0.5432562
163	0x3ecf208d	0.40454522
164	0xbed16008	-0.4089358
165	0xbe4222cc	-0.18958586
166	0xbf306c20	-0.68914986
167	0xbe60b586	-0.21944246
168	0x3ec141f9	0.37745646
169	0xbcbcec07	-0.023061765
170	0xbed2def0	-0.41185713
171	0x3e584da3	0.21123366
172	0xbef62040	-0.4807148
173	0x3ef766e3	0.48320684
174	0xbf1d1dd7	-0.61373657
175	0xbe64b7e3	-0.22335772
176	0xbf2ec998	-0.6827636
177	0xbf128797	-0.57238144
178	0xbec7eead	-0.39049283
179	0x3f0f9e3c	0.5610082
180	0xbdca2dd3	-0.098720215
181	0x3f1d89f1	0.61538607
182	0xbebb669a	-0.36601716
183	0x3ec4aa22	0.3841105
184	0x3edc871f	0.4307184
185	0x3f1a4dff	0.6027526
186	0xbee93569	-0.4554856
187	0x3f09bd78	0.5380473
188	0x3e80d201	0.2516022
189	0xbea9481c	-0.33062828
190	0xbeacc41d	-0.33743373
191	0xbf17d44b	-0.5930831
192	0xbe2c5bcc	-0.16831893
193	0xbf261419	-0.64874417
194	0xbd3113fb	-0.043231945
195	0x3e3302d2	0.17481545
196	0xbf1d451e	-0.6143359
197	0xbf1c8128	-0.61134577
198	0xbea11c7d	-0.31467047
199	0x3ecb87bf	0.39752004
200	0x3e15a77d	0.14614673
201	0xbf33f5a0	-0.7029667
202	0x3ec1bb85	0.3783838
203	0x3f063519	0.5242477
204	0x3e9d8fac	0.30773675
205	0xbf2571d3	-0.64626807
206	0xbe62d54c	-0.22151679
207	0xbe706663	-0.23476557
208	0x3d9ad755	0.075606026
209	0x3e8365c4	0.2566358
210	0x3ce90e54	0.028449215
211	0x3ef0356a	0.46915752
212	0xbe709e64	-0.23497921
213	0x3e0d25d2	0.13783959
214	0xbc2c5923	-0.010519299
215	0xbf16b70d	-0.58873063
216	0xbf2f97a4	-0.6859076
217	0x3e2b2b8d	0.16715832
218	0x3ed774c5	0.42081276
219	0xbf2a6c22	-0.6657125
220	0xbf1d90bb	-0.61548966
221	0xbd4bbe48	-0.049742013
222	0xbdb5bfc4	-0.08874467
223	0x3f05641d	0.52105886
224	0xbf08a894	-0.5338223
225	0xbf047cee	-0.5175313
226	0x3dc038b1	0.09385813
227	0x3ef131f4	0.47108424
228	0x3e757c11	0.23973109
229	0xbde18c26	-0.11013059
230	0xbcd7063c	-0.02624809
231	0x3f004dd5	0.5011876
232	0xbee996c3	-0.45622835
233	0xbf187943	-0.5956003
234	0x3e683e86	0.22680101
235	0xbef7b8a1	-0.48383048
236	0xbec7a1f7	-0.38990757
237	0x3e9e9093	0.30969676
238	0x3e081497	0.13289104
239	0xbe77c2ef	-0.24195455
240	0xbe997255	-0.2997004
241	0xbe547182	-0.20746425
242	0x3f11ba09	0.5692449
243	0xbed94d89	-0.42441967
244	0xbec95e52	-0.39329773
245	0x3bbe795b	0.0058128065
246	0xbef9ef87	-0.48815557
247	0x3f1fd8c0	0.6244011
248	0xbeb4e0db	-0.353278
249	0xbe6011ba	-0.21881762
250	0xbe64410b	-0.22290437
251	0xbeebecfc	-0.46079242
252	0xbf31a0bc	-0.69385886
253	0x3e4ccfaf	0.200011
254	0xbd5d219f	-0.05398714
255	0xbf298af8	-0.66227674

network.2.weight f4 [256, 256]
0	0xbd24c4ba	-0.040226676
1	0x3d7d05b0	0.061773002
2	0x3cc3b450	0.02388969
3	0x3ccd6ff0	0.02507779
4	0xbd2a2f2c	-0.041548893
5	0xbce07574	-0.027399756
6	0xbc49e7a5	-0.012323295
7	0xbc3b44e0	-0.011429995
8	0xbd2f6c70	-0.042828023
9	0xbc372a0d	-0.011179459
10	0xbaa5e75b	-0.001265745
11	0xbcc3b857	-0.023891611
12	0xbc22c92f	-0.009935661
13	0xbccaee78	-0.024771914
14	0x3c014f9d	0.007892516
15	0x3cc1188c	0.023571275
16	0xbd06d85e	-0.032921188
17	0xbd929f42	-0.07159282
18	0x3ce9f38e	0.028558519
19	0x3c7442f8	0.014908545
20	0xbd0232d2	-0.031786747
21	0x3d4413f5	0.047870595
22	0xbd096115	-0.03353985
23	0x3d2cfdbe	0.042234175
24	0x3d01e048	0.031708032
25	0xbd899590	-0.0671798
26	0x3d251ae0	0.040308833
27	0xbd8d364c	-0.06895122
28	0xbd0dd3e8	-0.034625918
29	0xbc2ab750	-0.010419682
30	0xbd2c8e50	-0.042127907
31	0x3d7a16c4	0.061056867
32	0xbcd61c20	-0.026136458
33	0x3ccb5c74	0.024824359
34	0xbd93e239	-0.07220883
35	0x3d135ee0	0.03597915
36	0xbc9f1f0c	-0.019423984
37	0xbd6e1547	-0.05812576
38	0x3ab4fc21	0.001380805
39	0x3cc98f0e	0.024604347
40	0x3d49301e	0.049118154
41	0xbd211877	-0.039329972
42	0xbcfbf518	-0.030756518
43	0x3c44e090	0.0120164305
44	0x3b0fd724	0.0021948302
45	0x3cc4d98c	0.024029516
46	0x3d0c8316	0.0343047
47	0xbd0a2fd9	-0.033737037
48	0x3d0e39d0	0.034723103
49	0x3ce71c51	0.028211745
50	0xbce38c59	-0.027776884
51	0x3d362210	0.04446608
52	0x3cfa2718	0.03053622
53	0x3d5ee5fb	0.054418545
54	0xbd117a66	-0.03551712
55	0xbcfcd488	-0.030863062
56	0xbc940a04	-0.018071182
57	0x3b4fc660	0.0031703934
58	0x3d19a6a4	0.037512437
59	0xbd12240e	-0.035678916
60	0x3d002adc	0.031290874
61	0xbd072a96	-0.032999597
62	0x3c9da1bd	0.019242162
63	0xbb427780	-0.0029673278
64	0xbd60473c	-0.054755434
65	0xbd0cdcea	-0.034390368
66	0xbd60cbab	-0.054881733
67	0x3cfdeecc	0.030997656
68	0xbd764a00	-0.060129166
69	0xbbaaa2c0	-0.0052073896
70	0x3c5cef18	0.013484739
71	0xbd2b8c7b	-0.04188202
72	0x3c1d27ba	0.009591991
73	0xbd79f6e2	-0.06102646
74	0xbd372b90	-0.04471928
75	0xbd67f7b4	-0.056632712
76	0xbcc1b20d	-0.023644472
77	0xbcba8530	-0.022768587
78	0x3c12a148	0.008949585
79	0xbcc6aa39	-0.02425109
80	0x3cf0ae98	0.029380128
81	0x3d6ab31a	0.05729971
82	0x3cb7b378	0.022424445
83	0xbcc9b61c	-0.02462297
84	0xbd6fb6f8	-0.058524102
85	0x3cb97288	0.02263762
86	0xbd1a7100	-0.03770542
87	0x3c9e6b46	0.019338261
88	0x3d23d5a1	0.039998654
89	0x3cc57d28	0.02410753
90	0x3d703522	0.05864442
91	0x3d7325dc	0.059362277
92	0x3c58d258	0.013233744
93	0xbd3a87f0	-0.045539796
94	0x3d64b892	0.055840082
95	0xbcf2f11c	-0.029655986
96	0xbd13fc35	-0.036129195
97	0x3d11dbb6	0.035609923
98	0x3d11549d	0.035481084
99	0x3c9ab394	0.018884458
100	0xbb1b3345	-0.0023681682
101	0xbd67d345	-0.056597967
102	0xbc81f814	-0.015865363
103	0x3d476815	0.048683245
104	0x3bc77330	0.0060867295
105	0x3baf5880	0.005351126
106	0xbcbce292	-0.023057256
107	0xbd1dfa36	-0.038568698
108	0x3d1894f2	0.03725142
109	0x3b7c9820	0.0038542822
110	0x3d268c08	0.040660888
111	0xbc353f20	-0.011062413
112	0x3c53ca65	0.012926673
113	0x3cd35694	0.02579812
114	0xba50a746	-0.0007959496
115	0x3cb7d577	0.022440655
116	0x3d206bde	0.03916537
117	0x3d6d4ad8	0.057932705
118	0x3d44ce80	0.048048496
119	0xbcb7da8d	-0.02244308
120	0xbd5f3e55	-0.054502804
121	0xbb889773	-0.004168445
122	0xba0f0100	-0.0005455166
123	0xbca6c8d7	-0.02035944
124	0xbc2b7940	-0.01046592
125	0x3b40a580	0.002939552
126	0x3d3ac906	0.045601867
127	0x3c9d682d	0.019214714
128	0xbcb5ceec	-0.022193395
129	0xbcd28c14	-0.02570156
130	0xbcb21ed9	-0.021743225
131	0xbcc72eca	-0.024314303
132	0x3d663378	0.05620143
133	0x3d0796d6	0.033102833
134	0x3d3900ab	0.045166653
135	0x39514c00	0.00019960105
136	0x3c4e82d0	0.01260443
137	0x3cb18b24	0.021672793
138	0xbd9fbdc4	-0.07799867
139	0x3bb6e120	0.005581036
140	0xbca91f8e	-0.02064493
141	0xbd1a8a0b	-0.037729304
142	0xbd74c85a	-0.059761383
143	0x3d1318b8	0.035912246
144	0x3d502518	0.050816625
145	0x3ced4bc4	0.028966792
146	0x3d407d89	0.04699472
147	0xbd16c585	-0.036809463
148	0xbc30de38	-0.010795169
149	0x3c5146ad	0.012773198
150	0xbc293128	-0.010326661
151	0xbcd909ea	-0.026493985
152	0xbd8be685	-0.068310775
153	0x3bec6653	0.0072143464
154	0xbd52ffb1	-0.051513378
155	0x3b14f4c0	0.002272889
156	0x3d30bc68	0.04314843
157	0xbc9d99f8	-0.019238457
158	0xbca160d0	-0.019699484
159	0x3cd63c64	0.026151843
160	0xbd2dedb9	-0.042463038
161	0xbbafe080	-0.0053673387
162	0x3d6f097c	0.058358654
163	0xbd331a5b	-0.043726306
164	0xbd60052e	-0.05469244
165	0xbd0f44d0	-0.034977734
166	0xbc8df324	-0.017327853
167	0xbcf2f180	-0.029656172
168	0xbd40eada	-0.047098972
169	0x3c5caf18	0.01346948
170	0x3c2e0428	0.010621108
171	0xbd0bd34f	-0.034137066
172	0xbd6c7da5	-0.05773701
173	0xbcbae773	-0.022815442
174	0xbcd81584	-0.026377447
175	0xbca69d50	-0.020338684
176	0xbd66f188	-0.056382686
177	0x3b46b8e6	0.003032261
178	0xbd3c16d8	-0.045920223
179	0xbd89f9b0	-0.06737077
180	0xbd7bbc80	-0.061459064
181	0x3bc48dab	0.0059983335
182	0xbd1a1e6c	-0.03762667
183	0xbd12620f	-0.035738047
184	0x3cf39b43	0.02973712
185	0x3cf894d0	0.030344397
186	0x3d12c9c4	0.03583695
187	0xbda0e906	-0.07856946
188	0xbd6371e5	-0.05552854
189	0xbcc14920	-0.023594439
190	0x3d537b22	0.0516311
191	0x3bd182e0	0.0063937753
192	0xbd56bfe5	-0.0524291
193	0x39cd3000	0.0003913641
194	0xbd46d3e6	-0.048541926
195	0xbcccb76a	-0.024989802
196	0xbc8cc988	-0.017185941
197	0x3d5d9c00	0.05410385
198	0x3be8d8a0	0.007105902
199	0xbc872463	-0.016496843
200	0xbb78f78a	-0.0037989342
201	0xbc93cbf8	-0.018041596
202	0x3c01cd2f	0.007922455
203	0x3ba4cc49	0.0050292355
204	0x3b1b4f25	0.0023698297
205	0xbcc790d8	-0.02436106
206	0x3d5a6816	0.05332192
207	0xbc13d5b8	-0.0090231225
208	0xbcdc9533	-0.026926612
209	0x3cb5157a	0.022104967
210	0x3d2b8307	0.041873004
211	0x3d31e29a	0.043428995
212	0x3c97af2c	0.018516146
213	0xbd049693	-0.03237016
214	0x3c9b010a	0.018921394
215	0x3d5ba2e8	0.053622156
216	0xbd7b17f2	-0.061302133
217	0xbc32e6d2	-0.01091929
218	0xbd719851	-0.05898315
219	0x3c3ed518	0.011647485
220	0x3cd3c164	0.025849052
221	0xbccdd79d	-0.025127226
222	0xbbab5470	-0.0052285716
223	0x3c183a7d	0.009291288
224	0xbc2c1a78	-0.0105043575
225	0xbd56fbca	-0.05248622
226	0x3d05123f	0.032488104
227	0xbd36a5f0	-0.044591844
228	0xbcae3ca4	-0.02126915
229	0x3bb781ce	0.0056001907
230	0xbc52f1f6	-0.012875071
231	0xbd92723d	-0.071506955
232	0x3ceae7d4	0.028674997
233	0xbd0ef41a	-0.034900762
234	0xbd04c6e0	-0.032416224
235	0x3c74a640	0.014932215
236	0xbd0598c0	-0.032616377
237	0xbd3c96ce	-0.046042256
238	0xbd10d0ef	-0.035355505
239	0xbd12bbcd	-0.035823632
240	0xbcd5d494	-0.026102342
241	0xbce51eda	-0.027968813
242	0xbb22281b	-0.0024743143
243	0xbd4f28e8	-0.05057612
244	0xbd1af3a6	-0.037830018
245	0xbbb4ce63	-0.0055177673
246	0x3c0e67e0	0.008691758
247	0x3c934786	0.017978441
248	0xbd33d35e	-0.043902747
249	0x3ca36dc8	0.019949809
250	0x3d1181fe	0.03552436
251	0x3d0e2588	0.03470376
252	0xbd6e71a4	-0.058213845
253	0xbd279ef0	-0.04092306
254	0xbd81ff77	-0.06347554
255	0xbd21ffee	-0.039550714

network.2.bias f4 [256]
0	0xbcebee17	-0.028800054
1	0x3c881315	0.016610662
2	0xb960dfe3	-0.00021445709
3	0xbdb7a658	-0.089672744
4	0xbcea276c	-0.028583251
5	0xbba3d8a0	-0.005000189
6	0xbba82814	-0.005131731
7	0xbd861c4c	-0.06548366
8	0x3c11aeee	0.008891804
9	0x3cf85810	0.030315429
10	0xbc23dc78	-0.010001294
11	0xbd881a8d	-0.06645689
12	0x3d29f6d3	0.041495156
13	0xbc839577	-0.016062481
14	0xbd5df29e	-0.054186456
15	0x3d858479	0.06519408
16	0xbba527c6	-0.0050401418
17	0xbdc511a4	-0.09622505
18	0x3a298278	0.000646628
19	0xbd90abda	-0.07064028
20	0xbc29319f	-0.010326772
21	0x3b14e540	0.0022719651
22	0xbd85b586	-0.065287635
23	0x3c982c8d	0.018575931
24	0xbd4976b9	-0.04918549
25	0xbc9022a7	-0.017594649
26	0xbd32ab09	-0.043620143
27	0xbd400fb0	-0.04688996
28	0x3a23bb4f	0.00062458677
29	0xbbcc5a85	-0.0062363767
30	0xbdafd9d6	-0.08586471
31	0xbccbbec0	-0.02487123
32	0xbd9a17bf	-0.075240605
33	0xbd753b11	-0.059870783
34	0x3d1027d9	0.03519425
35	0xbd5041a8	-0.050843865
36	0xbcfd40f6	-0.030914765
37	0xbd5408d8	-0.051766247
38	0xbd1d2a4e	-0.038370423
39	0x3f3f280a	0.7467047
40	0x3cecdf77	0.02891515
41	0xbcd26fae	-0.025688019
42	0xbd654d6d	-0.055982042
43	0x3c5fc3b9	0.013657504
44	0x3d1220a3	0.035675656
45	0xbce562ee	-0.028001275
46	0xbc7dfd71	-0.01550232
47	0xbd8997b5	-0.06718389
48	0xbd1de158	-0.038544983
49	0xbd9b1c4b	-0.07573756
50	0xbd601de4	-0.054716006
51	0x3d0bbd82	0.034116276
52	0x3cf9a95f	0.03047627
53	0x3dd9b782	0.106307045
54	0x3c9c4345	0.019075045
55	0x3d0094b8	0.03139183
56	0xbd298c86	-0.04139378
57	0x3a5b7375	0.00083713915
58	0x3cb78618	0.022402808
59	0x3de2d4bd	0.11075733
60	0xbcb4a577	-0.022051556
61	0xbd6a3bbd	-0.057185877
62	0xbd633a25	-0.055475373
63	0xbd8d45ad	-0.06898055
64	0x3c076855	0.008264621
65	0x3b4a7803	0.0030894286
66	0xbd16f426	-0.03685393
67	0xbda521a2	-0.080630556
68	0xbd063772	-0.03276772
69	0xbc31c2ef	-0.010849698
70	0xbdb912de	-0.09036802
71	0x3c86d677	0.016459687
72	0xbca8f399	-0.020623969
73	0x3d10c1a5	0.035340924
74	0x3adb5b07	0.0016735502
75	0xbd7b5386	-0.06135895
76	0xbc31b4e1	-0.010846348
77	0x3bd0a801	0.006367684
78	0xbd4b7e67	-0.049681094
79	0xbd6ec890	-0.05829674
80	0x3b3d4224	0.0028878534
81	0x3d4a2ef8	0.0493612
82	0xbd1de95e	-0.038552634
83	0xbdac0962	-0.08400227
84	0xbd6167b7	-0.05503055
85	0xbd7b6e28	-0.06138435
86	0xbdac0bca	-0.08400686
87	0x3d1faa80	0.03898096
88	0x3d1d40c6	0.03839185
89	0x3d0d95c6	0.034566663
90	0xbc8c779d	-0.01714688
91	0x3e1162bb	0.14197819
92	0x3d8bcc1f	0.068260424
93	0xbd2b24ad	-0.041783024
94	0x3c5c7fa2	0.013458164
95	0x3cddc510	0.027071506
96	0x3f450544	0.7696116
97	0xbc3d80d9	-0.011566364
98	0x3d63f420	0.055652738
99	0xbba35e6d	-0.0049856217
100	0xbd47207b	-0.04861496
101	0xbcafe261	-0.02147025
102	0x3ba601b1	0.0050661196
103	0x3cf43dd4	0.029814638
104	0xbc86b77f	-0.01644492
105	0xbd55fb94	-0.052241877
106	0x39a4ae4a	0.00031410373
107	0x3b7b7e20	0.0038374737
108	0xbcd150cb	-0.02555122
109	0xbd5f691e	-0.054543607
110	0x3c5b229e	0.013374953
111	0xbccea3bc	-0.025224559
112	0x3b16e7a2	0.0023026248
113	0xbd915a69	-0.070973225
114	0x3c3ae15e	0.011406271
115	0x3ce93d50	0.028471619
116	0xbd4f37a8	-0.050590187
117	0xbd57ecd6	-0.0527161
118	0x3e0a8359	0.13526668
119	0xbb5856fd	-0.0033010833
120	0xbd493122	-0.049119122
121	0x3b0f7134	0.0021887543
122	0x3e8f7c17	0.2802436
123	0xbcc86e45	-0.024466643
124	0xbd9a66c3	-0.075391315
125	0xbd775f12	-0.0603934
126	0x3cb569e8	0.022145227
127	0xbd71263c	-0.058874354
128	0x3d81de3c	0.06341216
129	0xbd3af968	-0.04564801
130	0x3d5ca312	0.053866453
131	0xbce97df8	-0.02850245
132	0x3aab9203	0.001308978
133	0xbd2caa92	-0.042154856
134	0x3cb8cd37	0.022558792
135	0xbda450c5	-0.08023218
136	0x3dec0578	0.115244806
137	0x3dd2aa8b	0.10286435
138	0xbc96731c	-0.018365435
139	0x3ca9f81a	0.020748187
140	0xbd145697	-0.03621539
141	0x3d24d43b	0.04024146
142	0xbc1b99a4	-0.00949708
143	0x3cfde293	0.030991828
144	0xbd7e4345	-0.062075872
145	0xbdb459f0	-0.08806217
146	0x3d488b64	0.04896106
147	0x3cd08bd1	0.025457295
148	0xbc55d241	-0.013050617
149	0x3c23f010	0.010005966
150	0x3db74745	0.089491405
151	0x3ce57e7c	0.028014414
152	0xbcf79e61	-0.030226888
153	0x3cd9a370	0.02656719
154	0x3d4ff5ca	0.050771512
155	0xbcbfdb7d	-0.02342009
156	0xbd8e8ebb	-0.069608174
157	0x3ccab96b	0.024746617
158	0x3c85d03f	0.016334651
159	0x3c877c55	0.016538778
160	0x3cc032ca	0.023461718
161	0xbb25cdaf	-0.00252996
162	0xbc3a4b55	-0.0113705
163	0xbdae6cb5	-0.08516828
164	0xbd2a52b5	-0.04158278
165	0x3be96439	0.007122543
166	0xbd1a440a	-0.037662543
167	0x3d7c5d30	0.061612308
168	0xbd89cb60	-0.06728244
169	0xbd57ee05	-0.052717227
170	0x3b87ce7b	0.0041444874
171	0xbd75e22f	-0.06003016
172	0xbdad5285	-0.08463005
173	0xbd9c46b5	-0.07630674
174	0xbd8f8ee4	-0.07009676
175	0xbd812bc1	-0.063071735
176	0x3d18c5c0	0.037297964
177	0x3d5795be	0.05263304
178	0xbd094b13	-0.033518862
179	0xbb4fee56	-0.0031727753
180	0xbc8a9652	-0.016917381
181	0x3bbaf8ef	0.0057059447
182	0x3c256f15	0.010097285
183	0xbcbc3411	-0.022974046
184	0xbc944261	-0.018098058
185	0x3edeb323	0.43496045
186	0x3f492989	0.78579
187	0xbda9ea23	-0.08296611
188	0x3caa8534	0.02081547
189	0x3ca3adb9	0.019980298
190	0xbd440656	-0.047857605
191	0x3c98ca89	0.018651264
192	0xbc8b408d	-0.016998554
193	0xbd080dd8	-0.033216327
194	0xbcee8e5b	-0.029120615
195	0xbc81467c	-0.01578068
196	0x3d2452b7	0.040117946
197	0x3e5dfcea	0.2167851
198	0xbd0bd920	-0.034142613
199	0x3d441c62	0.04787863
200	0xbcc11886	-0.023571264
201	0x3c276848	0.010217734
202	0xbd2661d1	-0.04062063
203	0x3b58abe0	0.003306143
204	0xbc2ac8c8	-0.010423847
205	0xbd34d6ec	-0.044150278
206	0xbbdce8ee	-0.0067416346
207	0x3b222154	0.0024739103
208	0xbd801ccd	-0.06255493
209	0xbd53c17a	-0.051698186
210	0x3e432c08	0.19059765
211	0xbda3b82f	-0.079941146
212	0x3d2f3ad0	0.042780697
213	0xbc3562ad	-0.011070889
214	0xbd00bda6	-0.031430863
215	0xbd29a26f	-0.041414674
216	0x3cd70cf3	0.026251292
217	0x3d0db499	0.03459606
218	0xbd8cc93f	-0.06874322
219	0x3e0a0385	0.13477905
220	0xbd89bbe1	-0.06725288
221	0xbd5bdeda	-0.053679325
222	0x3c27ed33	0.010249424
223	0x3b9fd00a	0.004877095
224	0x3e36c5a3	0.1784883
225	0xbbf75c40	-0.007548839
226	0x3d472494	0.048618868
227	0xbd366ac2	-0.044535406
228	0xbcc95926	-0.024578642
229	0xbd28f206	-0.041246437
230	0xbd6100a3	-0.054932248
231	0xbdba1de5	-0.09087733
232	0x3c9a5bf3	0.018842673
233	0x3cb767b7	0.022388322
234	0x3ce12402	0.02748299
235	0xbd7a6457	-0.061130848
236	0x3d3fb233	0.046800803
237	0x3d06af98	0.032882303
238	0xbd0a59b0	-0.03377694
239	0xbc059ea5	-0.0081555
240	0xbdb034a0	-0.086037874
241	0xbc56b67a	-0.013105029
242	0xbcaefb43	-0.021360045
243	0xba3d5090	-0.00072217826
244	0x3c807f18	0.015685603
245	0xbcaecb59	-0.021337198
246	0xbc1c6ff8	-0.00954818
247	0x3cdf86dd	0.027285988
248	0xbb7e612c	-0.0038815243
249	0xbd3def72	-0.04637093
250	0xba8606ec	-0.0010225452
251	0xbd184e1a	-0.03718386
252	0xbbe434b7	-0.006964292
253	0x3d03a97f	0.032144066
254	0xbc025398	-0.007954501
255	0xbdc6d256	-0.09708087

network.4.weight f4 [3, 256]
0	0x3d6e0f9e	0.058120362
1	0xbcf2e13b	-0.029648414
2	0xbbdc3a40	-0.006720811
3	0x3d1eb8ca	0.038750447
4	0xbb02f3e0	-0.0019981787
5	0x3a188c80	0.0005819276
6	0x3d44a659	0.048010204
7	0x3bd1eda5	0.0064065033
8	0x3c17d0c7	0.009266085
9	0xbd48c94a	-0.04902009
10	0xbd28f2ca	-0.041247167
11	0xbcca16c2	-0.024669055
12	0xc0038f11	-2.055607
13	0x3c8dd4ef	0.017313449
14	0x3cda8348	0.026673928
15	0xbc905579	-0.017618882
16	0xbad1ef25	-0.0016016705
17	0x3cc42259	0.02394216
18	0xba601702	-0.00085483503
19	0xbcda2af8	-0.026631817
20	0xbcc0a362	-0.023515407
21	0xbc7db1e8	-0.015484311
22	0xbcd1040b	-0.025514623
23	0x3ce34f91	0.027747901
24	0xbc6d61b0	-0.014488623
25	0x3bb7d056	0.0056095524
26	0xbc963de6	-0.018340062
27	0xbc8e9cef	-0.017408816
28	0x3d0d9622	0.034567006
29	0xbd016e82	-0.03159953
30	0xbd0d3da1	-0.034482602
31	0xb7b260ce	-2.1264332e-05
32	0x3c16f7b7	0.009214333
33	0x3ca4346f	0.020044534
34	0x3c9f77cb	0.019466301
35	0xbd7e922e	-0.062151127
36	0xbc2e8b78	-0.010653369
37	0x3d52dea6	0.051481865
38	0xbb7f41e0	-0.0038949177
39	0xbf36cf1f	-0.7140979
40	0x3d4641f4	0.04840274
41	0x3c23136d	0.009953362
42	0xbd5b4345	-0.05353095
43	0xbc3696ea	-0.011144379
44	0xbbe7ff76	-0.007080014
45	0x3d069bc9	0.032863412
46	0x3d632258	0.055452675
47	0xbd03b5cc	-0.032155797
48	0x3cd356a8	0.025798157
49	0xbcd58f31	-0.026069256
50	0x3d4e86e6	0.050421618
51	0xbd5bf3a5	-0.053699154
52	0x3bd0c993	0.006371686
53	0xbfdfde37	-1.748969
54	0xbcda17c4	-0.02662266
55	0x3d0aa506	0.033848785
56	0xbb8794ee	-0.004137627
57	0xbc74df7d	-0.014945862
58	0x3d4d798c	0.050164744
59	0x3f88bbfb	1.0682367
60	0xbba520ff	-0.005039334
61	0x3d0b5857	0.034019794
62	0xbd503761	-0.050834063
63	0x3c0645c9	0.008195349
64	0xba31a6b3	-0.0006776854
65	0xbcf02f54	-0.029319443
66	0xbd4a414c	-0.04937868
67	0x3d038cfe	0.032116883
68	0xbd5d3b78	-0.054011792
69	0x3c89e25c	0.01683157
70	0xbcc4c2ca	-0.024018664
71	0xbfa5adb9	-1.2943641
72	0xbca5bf1e	-0.020232733
73	0x3ccdcdcb	0.025122544
74	0xbd4c167e	-0.049826138
75	0x3bbe1c80	0.0058017373
76	0xba5af042	-0.0008351841
77	0xbcdcf18a	-0.026970644
78	0xbcd46e32	-0.025931451
79	0x3b0e2571	0.0021689797
80	0xbcfb53d8	-0.030679628
81	0xbc8bc487	-0.017061485
82	0x3b674132	0.0035286662
83	0xbc865eea	-0.01640268
84	0xbc561b55	-0.01306804
85	0xbc9d49dc	-0.019200258
86	0x3d14f3e6	0.036365412
87	0xbcc19c8c	-0.023634218
88	0xbc6d6400	-0.014489174
89	0xbd774f84	-0.060378566
90	0xbc5c2fa1	-0.01343909
91	0xbf976820	-1.1828651
92	0xbda02d4f	-0.07821142
93	0x3c2566d3	0.010095316
94	0xbd799800	-0.060935974
95	0x3d03f02e	0.032211475
96	0xbf2281c2	-0.63479245
97	0x3d4a3c7f	0.0493741
98	0xba86d880	-0.0010287911
99	0x3c34157e	0.010991452
100	0xbbc34f40	-0.005960375
101	0xbcd37a81	-0.02581525
102	0xbc202319	-0.009773993
103	0xbd3c65a7	-0.04599538
104	0xbc37ee6e	-0.01122628
105	0x3d4719eb	0.0486087
106	0xbc5bfde0	-0.013427228
107	0xbce92504	-0.028460033
108	0x3c283328	0.010266103
109	0xbc8830f4	-0.016624905
110	0x3d5f2c3e	0.054485552
111	0x3cde8324	0.027162142
112	0xbfb44b55	-1.408549
113	0x3c8061ac	0.015671574
114	0xbc339e58	-0.010963045
115	0xbce71070	-0.02820608
116	0x3d2fbaa2	0.042902596
117	0xbaa7edf8	-0.0012812009
118	0xbf9d993a	-1.2312386
119	0x3bde16ec	0.006777635
120	0x3b0db60e	0.0021623406
121	0xbd43788d	-0.047722388
122	0xbfac306f	-1.3452281
123	0xbb8d3241	-0.0043089692
124	0xba736000	-0.00092840195
125	0xbbf7f15e	-0.007566615
126	0x3c3a50a4	0.011371765
127	0xbd63be12	-0.055601187
128	0xbfbcd45c	-1.4752307
129	0xbd1f80d9	-0.038941238
130	0x3c889a01	0.016674997
131	0x3c8e1e28	0.017348364
132	0x3b0e2c72	0.0021693972
133	0xbd2aa020	-0.041656613
134	0x3c2c46ee	0.010514958
135	0x3d23f684	0.040030017
136	0x3de2f8e7	0.110826306
137	0xbf810f0a	-1.0082715
138	0xbb92bf60	-0.00447838
139	0x3c42d9e8	0.011892773
140	0x3cbafb31	0.022824856
141	0xbd49a3f2	-0.049228616
142	0xbd85601e	-0.065124735
143	0xbcbcf9f2	-0.023068402
144	0xbb0e80f7	-0.002174435
145	0x3d18fd6b	0.037351053
146	0x3d5074e7	0.050892737
147	0x3cf3a657	0.029742403
148	0xbd8f8728	-0.07008201
149	0xbc831cbf	-0.016004918
150	0xbfd22364	-1.641705
151	0xbd1798c4	-0.037010923
152	0xbb6e6439	-0.0036375655
153	0xbc2bf6ca	-0.010495851
154	0xbba317cd	-0.0049772025
155	0x3c755091	0.014972822
156	0x3cafbae4	0.021451421
157	0x3bf4e396	0.0074734194
158	0x3af7b96c	0.0018899865
159	0x3d17e78b	0.03708605
160	0x3bf48652	0.0074623013
161	0xbbb96d6b	-0.0056587956
162	0x3c845873	0.016155457
163	0xbd645ba8	-0.055751473
164	0x3cd8e03f	0.026474116
165	0xbbbfbd72	-0.005851441
166	0x3d4defd6	0.050277553
167	0xbd3e98d8	-0.046532482
168	0xbc79e7ec	-0.015253048
169	0xbc1a6ce9	-0.00942538
170	0xbd295e33	-0.0413496
171	0xbcdd79d8	-0.027035639
172	0x3d2a17b1	0.0415265
173	0x3b7ba653	0.0038398698
174	0x3d18ac98	0.037273973
175	0xbccc97b0	-0.024974674
176	0x3d704f30	0.05866927
177	0xbc9cb956	-0.019131344
178	0xba0c0475	-0.00053412403
179	0x3cdcd480	0.026956797
180	0xbd3bbabc	-0.04583238
181	0x3cf1381e	0.029445704
182	0xbc2ab612	-0.0104193855
183	0xbd75808a	-0.059937038
184	0x3d06e9ae	0.032937698
185	0xbf81f626	-1.0153244
186	0xbf4b5b9b	-0.79436654
187	0x3cb54a9f	0.022130309
188	0xbd0c9f9c	-0.034331903
189	0x3ca9da86	0.020734083
190	0x3cd46d3c	0.025930993
191	0x3d1f3284	0.038866535
192	0xbd371d0b	-0.044705432
193	0xbc670ba4	-0.014101896
194	0xbbe38108	-0.006942872
195	0x3c6e9ed8	0.0145642385
196	0xbf8df13d	-1.1089245
197	0xbfb277a9	-1.3942767
198	0xbcea50e3	-0.028603023
199	0x3b77a316	0.0037786416
200	0xbbc135d5	-0.00589631
201	0x3c99537c	0.018716566
202	0x3a856e18	0.0010179905
203	0x3b056801	0.002035618
204	0xbbb21930	-0.0054351315
205	0x3d4e1e7e	0.05032205
206	0x3cff8b3a	0.031194318
207	0x3d2cbe17	0.04217347
208	0xbd467a73	-0.04845662
209	0x3d4e3e34	0.05035229
210	0xbf9e08bb	-1.2346414
211	0xbb26ee16	-0.00254715
212	0xc003bc85	-2.0583813
213	0xbbd0e1ac	-0.0063745584
214	0x3c6c470d	0.014421237
215	0x3c3011db	0.010746445
216	0x3d0f7aad	0.035029102
217	0x3c92518b	0.017861148
218	0x3d2e3940	0.042535067
219	0xc053cad9	-3.3092558
220	0x3cd83a50	0.026394993
221	0x3cb13c87	0.021635307
222	0xbcb20cd6	-0.021734636
223	0xb761e000	-1.3463199e-05
224	0xc00459d3	-2.0679824
225	0x3b462106	0.0030232086
226	0xbc735150	-0.014850929
227	0xbcb6bb84	-0.022306211
228	0xbc8f0276	-0.017457228
229	0x3d5af927	0.053460266
230	0xbd47d594	-0.04878767
231	0xbd4be1b0	-0.04977578
232	0x3d7a00fc	0.061036095
233	0x3d13904e	0.03602629
234	0xbb627720	-0.0034555867
235	0x3c7a3750	0.015271977
236	0x3d309db7	0.04311916
237	0xbfe71b7a	-1.805526
238	0xbd4ca056	-0.049957596
239	0xbd23f26a	-0.040026106
240	0x3b926eda	0.004468781
241	0xbcb360a3	-0.021896666
242	0x3c7344e1	0.014847965
243	0x3bbcb431	0.005758785
244	0x3d1ae903	0.037819874
245	0x3d63ae17	0.055585947
246	0xbc275ac8	-0.010214515
247	0xbd8fb13c	-0.07016227
248	0x3d2c29ae	0.042031936
249	0xbcc169ef	-0.023610083
250	0xbd7cc4d2	-0.06171114
251	0x3ceda95e	0.029011425
252	0x3c2d2efb	0.010570283
253	0x3d178e4b	0.037000936
254	0x3cdb6e98	0.026786134
255	0x3c5024e4	0.012704108

network.4.bias f4 [3]
0	0xbf8a0667	-1.0783204
1	0xbf1915ae	-0.59798706
2	0xbf3e7907	-0.74403423
