trained_weights_discretization.npz (npz, 83328 bytes, 3 tensors)

rewards f8 [7000]
-200.0 -200.0 -200.0 -200.0 -200.0 -200.0 -200.0 -200.0
-200.0 -200.0 -200.0 -200.0 -200.0 -200.0 -200.0 -200.0
-200.0 -200.0 -200.0 -200.0 -200.0 -200.0 -200.0 -200.0
-200.0 -200.0 -200.0 -200.0 -200.0 -200.0 -200.0 -200.0
-200.0 -200.0 -200.0 -200.0 -200.0 -200.0 -200.0 -200.0
-200.0 -200.0 -200.0 -200.0 -200.0 -200.0 -200.0 -200.0
-200.0 -200.0 -200.0 -200.0 -200.0 -200.0 -200.0 -200.0
-200.0 -200.0 -200.0 -200.0 -200.0 -200.0 -200.0 -200.0
-200.0 -200.0 -200.0 -200.0 -200.0 -200.0 -200.0 -200.0
-200.0 -200.0 -200.0 -200.0 -200.0 -200.0 -200.0 -200.0
-200.0 -200.0 -200.0 -200.0 -200.0 -200.0 -200.0 -200.0
-200.0 -200.0 -200.0 -200.0 -200.0 -200.0 -200.0 -200.0
-200.0 -200.0 -200.0 -200.0 -200.0 -200.0 -200.0 -200.0
-200.0 -200.0 -200.0 -200.0 -200.0 -200.0 -200.0 -200.0
-200.0 -200.0 -200.0 -200.0 -200.0 -200.0 -200.0 -200.0
-200.0 -200.0 -200.0 -200.0 -200.0 -200.0 -200.0 -200.0
-200.0 -200.0 -200.0 -200.0 -200.0 -200.0 -200.0 -200.0
-200.0 -200.0 -200.0 -200.0 -200.0 -200.0 -200.0 -200.0
-200.0 -200.0 -200.0 -200.0 -200.0 -200.0 -200.0 -200.0
-200.0 -200.0 -200.0 -200.0 -200.0 -200.0 -200.0 -200.0
-200.0 -200.0 -200.0 -200.0 -200.0 -200.0 -200.0 -200.0
-200.0 -200.0 -200.0 -200.0 -200.0 -200.0 -200.0 -200.0
-200.0 -200.0 -200.0 -200.0 -200.0 -200.0 -200.0 -200.0
-200.0 -200.0 -200.0 -200.0 -200.0 -200.0 -200.0 -200.0
-200.0 -200.0 -200.0 -200.0 -200.0 -200.0 -200.0 -200.0
-200.0 -200.0 -200.0 -200.0 -200.0 -200.0 -200.0 -200.0
-200.0 -200.0 -200.0 -200.0 -200.0 -200.0 -200.0 -200.0
-200.0 -200.0 -200.0 -200.0 -200.0 -200.0 -200.0 -200.0
-200.0 -200.0 -200.0 -200.0 -200.0 -200.0 -200.0 -200.0
-200.0 -200.0 -200.0 -200.0 -200.0 -200.0 -200.0 -200.0
-200.0 -200.0 -200.0 -200.0 -200.0 -200.0 -200.0 -200.0
-200.0 -200.0 -200.0 -200.0 -200.0 -200.0 -200.0 -200.0
00000000: 0000 0000 0000 69c0 0000 0000 0000 69c0
00000010: 0000 0000 0000 69c0 0000 0000 0000 69c0
00000020: 0000 0000 0000 69c0 0000 0000 0000 69c0
00000030: 0000 0000 0000 69c0 0000 0000 0000 69c0
00000040: 0000 0000 0000 69c0 0000 0000 0000 69c0
00000050: 0000 0000 0000 69c0 0000 0000 0000 69c0
00000060: 0000 0000 0000 69c0 0000 0000 0000 69c0
00000070: 0000 0000 0000 69c0 0000 0000 0000 69c0
00000080: 0000 0000 0000 69c0 0000 0000 0000 69c0
00000090: 0000 0000 0000 69c0 0000 0000 0000 69c0
000000a0: 0000 0000 0000 69c0 0000 0000 0000 69c0
000000b0: 0000 0000 0000 69c0 0000 0000 0000 69c0
000000c0: 0000 0000 0000 69c0 0000 0000 0000 69c0
000000d0: 0000 0000 0000 69c0 0000 0000 0000 69c0
000000e0: 0000 0000 0000 69c0 0000 0000 0000 69c0
000000f0: 0000 0000 0000 69c0 0000 0000 0000 69c0
00000100: 0000 0000 0000 69c0 0000 0000 0000 69c0
00000110: 0000 0000 0000 69c0 0000 0000 0000 69c0
00000120: 0000 0000 0000 69c0 0000 0000 0000 69c0
00000130: 0000 0000 0000 69c0 0000 0000 0000 69c0
00000140: 0000 0000 0000 69c0 0000 0000 0000 69c0
00000150: 0000 0000 0000 69c0 0000 0000 0000 69c0
00000160: 0000 0000 0000 69c0 0000 0000 0000 69c0
00000170: 0000 0000 0000 69c0 0000 0000 0000 69c0
00000180: 0000 0000 0000 69c0 0000 0000 0000 69c0
00000190: 0000 0000 0000 69c0 0000 0000 0000 69c0
000001a0: 0000 0000 0000 69c0 0000 0000 0000 69c0
000001b0: 0000 0000 0000 69c0 0000 0000 0000 69c0
000001c0: 0000 0000 0000 69c0 0000 0000 0000 69c0
000001d0: 0000 0000 0000 69c0 0000 0000 0000 69c0
000001e0: 0000 0000 0000 69c0 0000 0000 0000 69c0
000001f0: 0000 0000 0000 69c0 0000 0000 0000 69c0
00000200: 0000 0000 0000 69c0 0000 0000 0000 69c0
00000210: 0000 0000 0000 69c0 0000 0000 0000 69c0
00000220: 0000 0000 0000 69c0 0000 0000 0000 69c0
00000230: 0000 0000 0000 69c0 0000 0000 0000 69c0
00000240: 0000 0000 0000 69c0 0000 0000 0000 69c0
00000250: 0000 0000 0000 69c0 0000 0000 0000 69c0
00000260: 0000 0000 0000 69c0 0000 0000 0000 69c0
00000270: 0000 0000 0000 69c0 0000 0000 0000 69c0
00000280: 0000 0000 0000 69c0 0000 0000 0000 69c0
00000290: 0000 0000 0000 69c0 0000 0000 0000 69c0
000002a0: 0000 0000 0000 69c0 0000 0000 0000 69c0
000002b0: 0000 0000 0000 69c0 0000 0000 0000 69c0
000002c0: 0000 0000 0000 69c0 0000 0000 0000 69c0
000002d0: 0000 0000 0000 69c0 0000 0000 0000 69c0
000002e0: 0000 0000 0000 69c0 0000 0000 0000 69c0
000002f0: 0000 0000 0000 69c0 0000 0000 0000 69c0
00000300: 0000 0000 0000 69c0 0000 0000 0000 69c0
00000310: 0000 0000 0000 69c0 0000 0000 0000 69c0
00000320: 0000 0000 0000 69c0 0000 0000 0000 69c0
00000330: 0000 0000 0000 69c0 0000 0000 0000 69c0
00000340: 0000 0000 0000 69c0 0000 0000 0000 69c0
00000350: 0000 0000 0000 69c0 0000 0000 0000 69c0
00000360: 0000 0000 0000 69c0 0000 0000 0000 69c0
00000370: 0000 0000 0000 69c0 0000 0000 0000 69c0
00000380: 0000 0000 0000 69c0 0000 0000 0000 69c0
00000390: 0000 0000 0000 69c0 0000 0000 0000 69c0
000003a0: 0000 0000 0000 69c0 0000 0000 0000 69c0
000003b0: 0000 0000 0000 69c0 0000 0000 0000 69c0
000003c0: 0000 0000 0000 69c0 0000 0000 0000 69c0
000003d0: 0000 0000 0000 69c0 0000 0000 0000 69c0
000003e0: 0000 0000 0000 69c0 0000 0000 0000 69c0
000003f0: 0000 0000 0000 69c0 0000 0000 0000 69c0
00000400: 0000 0000 0000 69c0 0000 0000 0000 69c0
00000410: 0000 0000 0000 69c0 0000 0000 0000 69c0
00000420: 0000 0000 0000 69c0 0000 0000 0000 69c0
00000430: 0000 0000 0000 69c0 0000 0000 0000 69c0
00000440: 0000 0000 0000 69c0 0000 0000 0000 69c0
00000450: 0000 0000 0000 69c0 0000 0000 0000 69c0
00000460: 0000 0000 0000 69c0 0000 0000 0000 69c0
00000470: 0000 0000 0000 69c0 0000 0000 0000 69c0
00000480: 0000 0000 0000 69c0 0000 0000 0000 69c0
00000490: 0000 0000 0000 69c0 0000 0000 0000 69c0
000004a0: 0000 0000 0000 69c0 0000 0000 0000 69c0
000004b0: 0000 0000 0000 69c0 0000 0000 0000 69c0
000004c0: 0000 0000 0000 69c0 0000 0000 0000 69c0
000004d0: 0000 0000 0000 69c0 0000 0000 0000 69c0
000004e0: 0000 0000 0000 69c0 0000 0000 0000 69c0
000004f0: 0000 0000 0000 69c0 0000 0000 0000 69c0
00000500: 0000 0000 0000 69c0 0000 0000 0000 69c0
00000510: 0000 0000 0000 69c0 0000 0000 0000 69c0
00000520: 0000 0000 0000 69c0 0000 0000 0000 69c0
00000530: 0000 0000 0000 69c0 0000 0000 0000 69c0
00000540: 0000 0000 0000 69c0 0000 0000 0000 69c0
00000550: 0000 0000 0000 69c0 0000 0000 0000 69c0
00000560: 0000 0000 0000 69c0 0000 0000 0000 69c0
00000570: 0000 0000 0000 69c0 0000 0000 0000 69c0
00000580: 0000 0000 0000 69c0 0000 0000 0000 69c0
00000590: 0000 0000 0000 69c0 0000 0000 0000 69c0
000005a0: 0000 0000 0000 69c0 0000 0000 0000 69c0
000005b0: 0000 0000 0000 69c0 0000 0000 0000 69c0
000005c0: 0000 0000 0000 69c0 0000 0000 0000 69c0
000005d0: 0000 0000 0000 69c0 0000 0000 0000 69c0
000005e0: 0000 0000 0000 69c0 0000 0000 0000 69c0
000005f0: 0000 0000 0000 69c0 0000 0000 0000 69c0
00000600: 0000 0000 0000 69c0 0000 0000 0000 69c0
00000610: 0000 0000 0000 69c0 0000 0000 0000 69c0
00000620: 0000 0000 0000 69c0 0000 0000 0000 69c0
00000630: 0000 0000 0000 69c0 0000 0000 0000 69c0
00000640: 0000 0000 0000 69c0 0000 0000 0000 69c0
00000650: 0000 0000 0000 69c0 0000 0000 0000 69c0
00000660: 0000 0000 0000 69c0 0000 0000 0000 69c0
00000670: 0000 0000 0000 69c0 0000 0000 0000 69c0
00000680: 0000 0000 0000 69c0 0000 0000 0000 69c0
00000690: 0000 0000 0000 69c0 0000 0000 0000 69c0
000006a0: 0000 0000 0000 69c0 0000 0000 0000 69c0
000006b0: 0000 0000 0000 69c0 0000 0000 0000 69c0
000006c0: 0000 0000 0000 69c0 0000 0000 0000 69c0
000006d0: 0000 0000 0000 69c0 0000 0000 0000 69c0
000006e0: 0000 0000 0000 69c0 0000 0000 0000 69c0
000006f0: 0000 0000 0000 69c0 0000 0000 0000 69c0
00000700: 0000 0000 0000 69c0 0000 0000 0000 69c0
00000710: 0000 0000 0000 69c0 0000 0000 0000 69c0
00000720: 0000 0000 0000 69c0 0000 0000 0000 69c0
00000730: 0000 0000 0000 69c0 0000 0000 0000 69c0
00000740: 0000 0000 0000 69c0 0000 0000 0000 69c0
00000750: 0000 0000 0000 69c0 0000 0000 0000 69c0
00000760: 0000 0000 0000 69c0 0000 0000 0000 69c0
00000770: 0000 0000 0000 69c0 0000 0000 0000 69c0
00000780: 0000 0000 0000 69c0 0000 0000 0000 69c0
00000790: 0000 0000 0000 69c0 0000 0000 0000 69c0
000007a0: 0000 0000 0000 69c0 0000 0000 0000 69c0
000007b0: 0000 0000 0000 69c0 0000 0000 0000 69c0
000007c0: 0000 0000 0000 69c0 0000 0000 0000 69c0
000007d0: 0000 0000 0000 69c0 0000 0000 0000 69c0
000007e0: 0000 0000 0000 69c0 0000 0000 0000 69c0
000007f0: 0000 0000 0000 69c0 0000 0000 0000 69c0

positions f8 [7000]
-0.3094128370285034 -0.3322058320045471 -0.39476367831230164 -0.387458473443985 -0.43510714173316956 -0.416618674993515 -0.3325856029987335 -0.4233064353466034
-0.4151490032672882 -0.4740873873233795 -0.3672550618648529 -0.28792136907577515 -0.41891008615493774 -0.4294454753398895 -0.37748461961746216 -0.42208781838417053
-0.41822224855422974 -0.34974047541618347 -0.4126661717891693 -0.26586276292800903 -0.4195452034473419 -0.4296991229057312 -0.3503503203392029 -0.44992733001708984
-0.370024710893631 -0.36723583936691284 -0.4036506116390228 -0.2899179458618164 -0.3707676827907562 -0.44951072335243225 -0.41678959131240845 -0.34299489855766296
-0.4381664991378784 -0.41075563430786133 -0.42014434933662415 -0.4176599085330963 -0.4476560950279236 -0.4337707757949829 -0.4336492717266083 -0.40907272696495056
-0.45239606499671936 -0.42630624771118164 -0.3265800178050995 -0.37418225407600403 -0.45206981897354126 -0.3471222221851349 -0.38843226432800293 -0.3355090022087097
-0.3166142404079437 -0.3442944586277008 -0.4027983546257019 -0.37763434648513794 -0.4035113453865051 -0.4226759672164917 -0.3628639280796051 -0.3195277750492096
-0.3158361315727234 -0.36079731583595276 -0.3866512179374695 -0.4304405748844147 -0.4517585337162018 -0.45809441804885864 -0.43285107612609863 -0.4236890375614166
-0.2800942063331604 -0.39264193177223206 -0.4866093099117279 -0.2938327491283417 -0.4392993748188019 -0.3760443925857544 -0.34219372272491455 -0.4646969139575958
-0.36600756645202637 -0.14535684883594513 -0.36780858039855957 -0.447135329246521 -0.3934335708618164 -0.37255412340164185 -0.3459750711917877 -0.3758009672164917
-0.39406636357307434 -0.3289617598056793 -0.4353732764720917 -0.2823631763458252 -0.35174915194511414 -0.4037487804889679 -0.3993191719055176 -0.39076370000839233
-0.45078223943710327 -0.25679296255111694 -0.41437894105911255 -0.41579630970954895 -0.42423149943351746 -0.43827494978904724 -0.3023112416267395 -0.43893301486968994
-0.35864022374153137 -0.35433250665664673 -0.47146621346473694 -0.3810686469078064 -0.29883673787117004 -0.37126439809799194 -0.40466248989105225 -0.42500919103622437
-0.3818575441837311 -0.3336672782897949 -0.3153058886528015 -0.36874204874038696 -0.39970821142196655 -0.4147537648677826 -0.4173767864704132 -0.42441266775131226
-0.3611738681793213 -0.41982582211494446 -0.30291682481765747 -0.3339434564113617 -0.418041855096817 -0.4231458604335785 -0.37870916724205017 -0.33006003499031067
-0.3342615067958832 -0.3976172208786011 -0.3229391574859619 -0.3176851272583008 -0.36623990535736084 -0.328767329454422 -0.4450085759162903 -0.4355834424495697
-0.41782864928245544 -0.44599324464797974 -0.35541048645973206 -0.44243288040161133 -0.25522518157958984 -0.4269675314426422 -0.40636804699897766 -0.3580639064311981
-0.4241155683994293 -0.43968501687049866 -0.40257325768470764 -0.4641382694244385 -0.33822041749954224 -0.38381528854370117 -0.3974834978580475 -0.4625736474990845
-0.4073543846607208 -0.45259004831314087 -0.3796049952507019 -0.34107494354248047 -0.284519761800766 -0.427672803401947 -0.30043673515319824 -0.41359981894493103
-0.355836421251297 -0.49250054359436035 -0.36558833718299866 -0.30431491136550903 -0.2664649784564972 -0.3572315275669098 -0.41703325510025024 -0.32715079188346863
-0.39280936121940613 -0.3183346092700958 -0.3750033676624298 -0.318174809217453 -0.43216991424560547 -0.4081477224826813 -0.39762264490127563 -0.3738561272621155
-0.4044102430343628 -0.2460576593875885 -0.3224565386772156 -0.43406933546066284 -0.21532514691352844 -0.41418421268463135 -0.28249284625053406 -0.29018548130989075
-0.4309471845626831 -0.2818853557109833 -0.45457330346107483 -0.4282458424568176 -0.32519182562828064 -0.27838438749313354 -0.35580307245254517 -0.391732782125473
-0.4390154778957367 -0.2570205330848694 -0.2979373335838318 -0.3470117151737213 -0.30009523034095764 -0.41653504967689514 -0.33902162313461304 -0.47576266527175903
-0.36419522762298584 -0.3252890408039093 -0.3405205309391022 -0.3587450087070465 -0.42943307757377625 -0.20183023810386658 -0.37904152274131775 -0.433229923248291
-0.4016113877296448 -0.4010275602340698 -0.3325812518596649 -0.3011310398578644 -0.41768380999565125 -0.4146016538143158 -0.3821059763431549 -0.39788973331451416
-0.3921653628349304 -0.35097381472587585 -0.20471255481243134 -0.4028012454509735 -0.4208148419857025 -0.4414534866809845 -0.23829251527786255 -0.44809409976005554
-0.3983064293861389 -0.24704022705554962 -0.2746863067150116 -0.36966994404792786 -0.3820716142654419 -0.4152686893939972 -0.4150346517562866 -0.3631332814693451
-0.4480096399784088 -0.43010929226875305 -0.4127332270145416 -0.30994221568107605 -0.32866230607032776 -0.34488412737846375 -0.4517422318458557 -0.29983142018318176
-0.3554414212703705 -0.4501756727695465 -0.3510364592075348 -0.44828689098358154 -0.4032047688961029 -0.2961929738521576 -0.3560241758823395 -0.39997345209121704
-0.37918487191200256 -0.40489429235458374 -0.35550200939178467 -0.4177297353744507 -0.3687935769557953 -0.360350102186203 -0.4095030128955841 -0.3181133568286896
-0.3747585117816925 -0.423539936542511 -0.3561622202396393 -0.3186081051826477 -0.32421907782554626 -0.3671685755252838 -0.3415365517139435 -0.3645891845226288
00000000: 0000 0080 6bcd d3bf 0000 0040 dc42 d5bf
00000010: 0000 00e0 ce43 d9bf 0000 00a0 1ecc d8bf
00000020: 0000 00a0 cbd8 dbbf 0000 0060 e1a9 dabf
00000030: 0000 0020 1549 d5bf 0000 00e0 7317 dbbf
00000040: 0000 0020 cd91 dabf 0000 00a0 7257 debf
00000050: 0000 0060 1b81 d7bf 0000 00c0 4d6d d2bf
00000060: 0000 0040 6ccf dabf 0000 00e0 087c dbbf
00000070: 0000 0040 b528 d8bf 0000 00a0 7c03 dbbf
00000080: 0000 0040 27c4 dabf 0000 00e0 2562 d6bf
00000090: 0000 0060 1f69 dabf 0000 0040 e503 d1bf
000000a0: 0000 0020 d4d9 dabf 0000 00c0 3080 dbbf
000000b0: 0000 00c0 236c d6bf 0000 0000 9ccb dcbf
000000c0: 0000 0020 7cae d7bf 0000 00c0 ca80 d7bf
000000d0: 0000 0060 69d5 d9bf 0000 0000 048e d2bf
000000e0: 0000 0060 a8ba d7bf 0000 00a0 c8c4 dcbf
000000f0: 0000 0040 aeac dabf 0000 00e0 a0f3 d5bf
00000100: 0000 0080 eb0a dcbf 0000 0000 d249 dabf
00000110: 0000 0020 a5e3 dabf 0000 00a0 f0ba dabf
00000120: 0000 00c0 65a6 dcbf 0000 0080 e6c2 dbbf
00000130: 0000 00e0 e8c0 dbbf 0000 0060 3f2e dabf
00000140: 0000 00a0 0ef4 dcbf 0000 0000 9a48 dbbf
00000150: 0000 00e0 afe6 d4bf 0000 0020 9af2 d7bf
00000160: 0000 0040 b6ee dcbf 0000 0020 4037 d6bf
00000170: 0000 0000 13dc d8bf 0000 00c0 fa78 d5bf
00000180: 0000 0060 6843 d4bf 0000 00a0 eb08 d6bf
00000190: 0000 00c0 72c7 d9bf 0000 0040 292b d8bf
000001a0: 0000 0040 21d3 d9bf 0000 0080 1f0d dbbf
000001b0: 0000 00a0 2939 d7bf 0000 00a0 2473 d4bf
000001c0: 0000 00c0 a836 d4bf 0000 00a0 4d17 d7bf
000001d0: 0000 00c0 e4be d8bf 0000 00a0 568c dbbf
000001e0: 0000 00a0 9ce9 dcbf 0000 0040 6b51 ddbf
000001f0: 0000 0000 d5b3 dbbf 0000 00a0 b81d dbbf
00000200: 0000 0040 10ed d1bf 0000 00a0 0b21 d9bf
00000210: 0000 0060 9b24 dfbf 0000 00e0 27ce d2bf
00000220: 0000 0020 7b1d dcbf 0000 0080 1c11 d8bf
00000230: 0000 0080 80e6 d5bf 0000 0020 98bd ddbf
00000240: 0000 0000 ab6c d7bf 0000 00a0 0d9b c2bf
00000250: 0000 0000 2d8a d7bf 0000 0080 dd9d dcbf
00000260: 0000 0000 042e d9bf 0000 0040 edd7 d7bf
00000270: 0000 00a0 7424 d6bf 0000 0080 1f0d d8bf
00000280: 0000 0020 6238 d9bf 0000 00a0 b50d d5bf
00000290: 0000 00e0 27dd dbbf 0000 0000 3d12 d2bf
000002a0: 0000 00e0 0e83 d6bf 0000 0020 05d7 d9bf
000002b0: 0000 0000 728e d9bf 0000 00c0 4502 d9bf
000002c0: 0000 00c0 9dd9 dcbf 0000 00c0 4b6f d0bf
000002d0: 0000 0040 2f85 dabf 0000 0020 689c dabf
000002e0: 0000 00e0 9b26 dbbf 0000 0060 b20c dcbf
000002f0: 0000 0040 1159 d3bf 0000 0080 7a17 dcbf
00000300: 0000 0020 f6f3 d6bf 0000 0040 62ad d6bf
00000310: 0000 00a0 802c debf 0000 00c0 6d63 d8bf
00000320: 0000 0020 2420 d3bf 0000 00c0 cbc2 d7bf
00000330: 0000 0080 fde5 d9bf 0000 00c0 5933 dbbf
00000340: 0000 00a0 5a70 d8bf 0000 0000 ce5a d5bf
00000350: 0000 00c0 f82d d4bf 0000 0040 7899 d7bf
00000360: 0000 00c0 d194 d9bf 0000 0060 538b dabf
00000370: 0000 0020 4db6 dabf 0000 00c0 9329 dbbf
00000380: 0000 0000 791d d7bf 0000 0020 6dde dabf
00000390: 0000 0040 fd62 d3bf 0000 0060 545f d5bf
000003a0: 0000 00a0 32c1 dabf 0000 0060 d214 dbbf
000003b0: 0000 0060 c53c d8bf 0000 0020 b41f d5bf
000003c0: 0000 0060 8a64 d5bf 0000 0080 8f72 d9bf
000003d0: 0000 0000 09ab d4bf 0000 0000 f454 d4bf
000003e0: 0000 0080 7970 d7bf 0000 0020 860a d5bf
000003f0: 0000 0040 057b dcbf 0000 0060 99e0 dbbf
00000400: 0000 0060 b4bd dabf 0000 0040 278b dcbf
00000410: 0000 00a0 0bbf d6bf 0000 0000 d250 dcbf
00000420: 0000 0000 9c55 d0bf 0000 00a0 6f53 dbbf
00000430: 0000 0020 ef01 dabf 0000 00e0 84ea d6bf
00000440: 0000 00a0 b524 dbbf 0000 00a0 cc23 dcbf
00000450: 0000 00a0 c2c3 d9bf 0000 0000 71b4 ddbf
00000460: 0000 0040 67a5 d5bf 0000 0000 6e90 d8bf
00000470: 0000 00a0 5e70 d9bf 0000 0080 ce9a ddbf
00000480: 0000 0020 1812 dabf 0000 0040 3cf7 dcbf
00000490: 0000 00c0 724b d8bf 0000 0000 2cd4 d5bf
000004a0: 0000 0060 9235 d2bf 0000 00c0 fd5e dbbf
000004b0: 0000 0000 5b3a d3bf 0000 0060 6b78 dabf
000004c0: 0000 0020 06c6 d6bf 0000 0000 2185 dfbf
000004d0: 0000 00a0 cc65 d7bf 0000 0040 e579 d3bf
000004e0: 0000 0020 c30d d1bf 0000 00a0 e1dc d6bf
000004f0: 0000 0040 acb0 dabf 0000 00e0 09f0 d4bf
00000500: 0000 00e0 c923 d9bf 0000 0020 985f d4bf
00000510: 0000 0020 0e00 d8bf 0000 00e0 f95c d4bf
00000520: 0000 0000 aca8 dbbf 0000 00a0 171f dabf
00000530: 0000 0040 a672 d9bf 0000 0040 42ed d7bf
00000540: 0000 0080 dbe1 d9bf 0000 0040 d17e cfbf
00000550: 0000 00c0 20a3 d4bf 0000 00c0 cac7 dbbf
00000560: 0000 0040 c68f cbbf 0000 0080 fe81 dabf
00000570: 0000 00e0 5c14 d2bf 0000 0020 6692 d2bf
00000580: 0000 0080 a394 dbbf 0000 00e0 680a d2bf
00000590: 0000 00a0 ba17 ddbf 0000 0040 6168 dbbf
000005a0: 0000 0060 f1cf d4bf 0000 00c0 0cd1 d1bf
000005b0: 0000 0040 7ac5 d6bf 0000 0060 2612 d9bf
000005c0: 0000 0060 d418 dcbf 0000 0040 0673 d0bf
000005d0: 0000 00c0 6711 d3bf 0000 00a0 7035 d6bf
000005e0: 0000 00a0 c234 d3bf 0000 00a0 82a8 dabf
000005f0: 0000 00c0 87b2 d5bf 0000 0040 e572 debf
00000600: 0000 0080 f94e d7bf 0000 0020 89d1 d4bf
00000610: 0000 00a0 16cb d5bf 0000 00a0 adf5 d6bf
00000620: 0000 00e0 d47b dbbf 0000 00c0 92d5 c9bf
00000630: 0000 0060 3742 d8bf 0000 0000 0aba dbbf
00000640: 0000 0040 00b4 d9bf 0000 0080 6faa d9bf
00000650: 0000 00e0 0249 d5bf 0000 0020 bb45 d3bf
00000660: 0000 00e0 54bb dabf 0000 0060 d588 dabf
00000670: 0000 00a0 6c74 d8bf 0000 0080 0677 d9bf
00000680: 0000 00c0 3c19 d9bf 0000 00e0 5a76 d6bf
00000690: 0000 0060 0534 cabf 0000 00e0 7ec7 d9bf
000006a0: 0000 0060 a1ee dabf 0000 0020 c640 dcbf
000006b0: 0000 0080 5e80 cebf 0000 00e0 92ad dcbf
000006c0: 0000 0040 da7d d9bf 0000 00a0 039f cfbf
000006d0: 0000 00e0 7594 d1bf 0000 0020 aca8 d7bf
000006e0: 0000 0080 dc73 d8bf 0000 0020 c393 dabf
000006f0: 0000 0080 ed8f dabf 0000 0060 933d d7bf
00000700: 0000 00a0 30ac dcbf 0000 0020 e986 dbbf
00000710: 0000 00a0 386a dabf 0000 00e0 17d6 d3bf
00000720: 0000 00a0 cd08 d5bf 0000 00e0 9412 d6bf
00000730: 0000 0040 58e9 dcbf 0000 0020 7030 d3bf
00000740: 0000 0060 8dbf d6bf 0000 00a0 adcf dcbf
00000750: 0000 00a0 6177 d6bf 0000 0080 bbb0 dcbf
00000760: 0000 0060 1bce d9bf 0000 0060 d3f4 d2bf
00000770: 0000 00a0 19c9 d6bf 0000 0040 2a99 d9bf
00000780: 0000 00a0 9044 d8bf 0000 00c0 c9e9 d9bf
00000790: 0000 0080 8bc0 d6bf 0000 0080 15bc dabf
000007a0: 0000 0060 509a d7bf 0000 00e0 f90f d7bf
000007b0: 0000 0020 4c35 dabf 0000 0020 f85b d4bf
000007c0: 0000 0020 0bfc d7bf 0000 0040 471b dbbf
000007d0: 0000 00a0 5ccb d6bf 0000 0040 1364 d4bf
000007e0: 0000 0060 01c0 d4bf 0000 00a0 b07f d7bf
000007f0: 0000 0020 bcdb d5bf 0000 00e0 6d55 d7bf

q_changes f8 [7000]
0.3831681586592 0.2930433540975237 0.5209672831435267 0.4577624931417207 0.49324594554174905 0.5502612044671911 0.8954205904285666 0.8473588320539891
0.8028816266956652 0.6831965869901566 1.0800448276534276 0.8553188489664132 0.9885936309498797 1.1251572568836394 1.3337242551993338 1.2210663644260773
1.7051893488171537 1.0338792630225546 1.485076549102617 1.4436416234101492 0.7091423121424985 1.4839695897091811 1.6415520677044473 1.247889342369092
1.5809843876894814 1.283426396135213 1.3702129900465452 1.145268832925769 1.3805430744975844 1.1979300478891304 0.8060447829233848 1.2378870033364962
1.0878700679744222 1.215529875284151 1.1094514271361184 1.4653691997186709 0.8041236750247798 0.6408946867658383 1.230952124099634 1.4547816287107782
1.4943467068040892 1.4990839873448873 1.9993595884420863 2.0401415750221856 0.8175030308621718 1.812691581101257 1.4090448947105898 1.0805721960003551
1.0629300552334 1.251842875379145 1.1820999789225368 1.0309215779743264 1.1130439716282368 1.3723453976448408 1.147748478671625 1.1720193165329107
1.2903772067926909 1.1966246768115525 1.5893129350146262 1.2071374912592265 1.3233382106502152 1.1410713384688016 1.5839493526039554 1.3031718863182213
1.4495181005307671 1.7844133102744015 1.0578174834447793 1.4633342442297712 1.4237500886622207 1.6438386188479353 1.0959218505968025 1.5517424283327017
1.537577948874283 1.021652703582511 1.330271795625503 1.3355468985777712 1.6728691262985969 1.1338694771976368 1.3626470764999041 1.5759347340913479
1.2256482811469223 1.6691360840609004 1.0511978313140151 1.7584500933956004 1.4009029923484615 1.138072895958956 1.0700398573997276 1.4728095792796196
0.9131567246566235 1.1746733091316433 1.2049422340338207 0.8252645737868907 1.1128129919315715 0.925545322795422 1.4162130480560204 0.7877900822170396
1.3631392728623624 1.5926712299574497 0.9227048522034025 1.2869650894910958 1.4686316728707158 1.3939374149475494 1.4250907333576848 1.1669212026452485
1.417260667989657 1.8241935986196953 1.5921993288512972 1.3195240595730944 1.026019910169186 1.2667815603650485 1.5769640086664936 1.1070241841796342
1.3281564357959805 1.1624729269394507 1.7772617865623097 1.9614691583619583 1.1262137076451495 1.191666083300765 1.4423958418737683 1.7746306997905812
1.6747191241683703 1.793679585515168 1.5090032220981824 1.8100306127935433 1.3785336114681073 1.6019873394717683 0.9837056960167114 1.3377429324682026
1.4619798202621368 1.4194042628036314 1.6796598742231232 1.2975328491508193 1.313968206270692 1.2973383217871017 1.258475796680635 1.2135297479323945
1.0854259712883128 1.0171357622975385 1.2681359634986968 1.1190028585880576 1.2219606195427355 1.3546034858169378 1.17681994521444 0.8270465457246985
1.5057631081014833 1.8300300809946357 1.4895318720592883 1.6607252787839544 1.6313729209815513 1.6543225750659314 1.554910313005081 1.6834667408368844
1.6560207460146028 0.9063697976030483 1.6008302610755996 1.4433782313594783 1.5801260306659017 2.2682286609825724 1.7244739074427624 1.8389718350796933
1.9616827037182496 1.431105276048033 1.304565264192556 1.7943731784799528 1.6563109788698327 1.2670902960630208 0.9535052259605621 1.551848001037575
1.2054541683039321 2.034099731801817 1.6397589323903077 1.0518297227608393 1.5101610076010576 1.5926432077013626 1.549169621941541 1.4844090045722895
1.2351229944391324 1.2703620586513766 0.8210463507915478 1.407412335190072 1.5026587748257043 1.552196092326719 2.24312384892362 1.7320666852210476
1.1044774099174592 1.3474188457562306 1.383735271673629 1.7039615551829215 1.4071783991497409 1.48687747007048 1.525932770331302 1.0695599942489942
1.447839968852353 1.2763966502525497 1.1482990752397342 1.2803579273986383 1.2994446919529459 1.3568699017107317 1.2501179747512907 0.8615367912059106
0.9981345084562072 0.9465683440220367 1.4333272077260322 1.3553395722189006 1.1363342543947752 0.835756368809399 1.178660746066221 0.9540478151109077
0.7893235008893846 1.3735852142269174 1.3897427517969856 1.1465864549310822 0.9617489676911255 0.9569881167738039 1.4987387282865292 1.151738812816042
1.1842950568779962 1.4200995436977344 1.256805112454137 1.772043535003485 1.5123802875522134 2.3266646357179788 1.127769260389389 1.952915634457014
1.255768310195954 1.1009762323945047 1.3873916227835075 2.112160672512921 1.3999501509144103 1.6691942604025058 1.3163713110457351 2.0002953328254254
1.8447563087703767 1.5863315412160262 1.4332627423470328 1.3358680657167348 1.7125890399988766 1.7268095476306158 1.937348133655778 1.9510425191865082
1.6992082560727226 1.4932689097868668 1.6825512828244893 1.3663275474843992 1.19221286754507 1.3311838874507522 1.634360759941135 1.6863776516917532
1.3652859002179056 1.244786707939312 2.0068357168439306 2.0503586279496417 1.7188707815355393 1.5177360289996393 1.406899767198066 1.4788990525463852
00000000: d1d3 93bd d385 d83f 402d 8ae9 38c1 d23f
00000010: bd65 6c94 c3ab e03f 6a43 580e fb4b dd3f
00000020: 5421 3f71 5791 df3f 8436 ae62 bd9b e13f
00000030: 54c8 0115 49a7 ec3f a8c1 f444 901d eb3f
00000040: fff2 26cf 34b1 e93f c091 bb16 bfdc e53f
00000050: 50c4 cf15 dd47 f13f c8d1 7ea2 c55e eb3f
00000060: 08d6 3e1c 8fa2 ef3f c0c1 52e5 a400 f23f
00000070: d868 9f3e ef56 f53f 384a 57e2 7c89 f33f
00000080: f083 6aa0 7448 fb3f 7c1c 6bfb c48a f03f
00000090: 883c a7a0 dfc2 f73f 160e 7bf5 2719 f73f
000000a0: 5094 db37 4bb1 e63f 98f3 80e5 56be f73f
000000b0: 688c d719 cc43 fa3f 0009 a8d0 5af7 f33f
000000c0: 78ce 0949 b64b f93f 0495 e31d ea88 f43f
000000d0: 5ade cc74 64ec f53f 50b5 6869 0553 f23f
000000e0: 90fb ba55 b416 f63f c045 a9b2 b82a f33f
000000f0: 308e b86d 1ecb e93f 4094 379a 62ce f33f
00000100: 84f5 c371 ea67 f13f 9080 5a74 cf72 f33f
00000110: 70cd c023 50c0 f13f d8b7 55f9 2672 f73f
00000120: e076 c592 61bb e93f b0dc fa92 3582 e43f
00000130: d031 bfda fab1 f33f 8826 e219 c946 f73f
00000140: e8bd a917 d8e8 f73f 38a8 b97d 3ffc f73f
00000150: 30d8 d47a 60fd ff3f 1671 ffbe 3552 0040
00000160: 90e2 bd1d fc28 ea3f e807 29e3 c800 fd3f
00000170: 400b d6a8 728b f63f 669d 2c12 064a f13f
00000180: 599b 12f2 c201 f13f 98be 1765 8c07 f43f
00000190: 8031 e1aa e1e9 f23f 443f e29f a77e f03f
000001a0: a073 1232 07cf f13f 1836 9b72 20f5 f53f
000001b0: a8da 3e82 2d5d f23f 40a0 ac53 97c0 f23f
000001c0: e0da ea91 62a5 f43f 00e0 c7ea 5f25 f33f
000001d0: 24f6 6f66 d36d f93f e8bd eb66 6f50 f33f
000001e0: 28a3 04b0 642c f53f f005 1205 d441 f23f
000001f0: 1045 bf46 db57 f93f b0da 8cc3 cad9 f43f
00000200: c0d5 4be4 3931 f73f 7ccf a2f8 f48c fc3f
00000210: 8084 8806 d2ec f03f 0457 212b d169 f73f
00000220: 90b3 472c aec7 f63f b8a8 3db9 294d fa3f
00000230: a08f b459 e588 f13f c012 58de efd3 f83f
00000240: f073 d755 eb99 f83f 201c 5c81 b058 f03f
00000250: 300b 1014 cb48 f53f f0a6 ba6c 665e f53f
00000260: 900c bf6a 12c4 fa3f 88f1 2752 5424 f23f
00000270: e0e9 5805 67cd f53f 40d8 f856 0737 f93f
00000280: 58cb 3e5f 419c f33f 58d7 d909 c8b4 fa3f
00000290: c8ea 31d1 b4d1 f03f 1884 ac90 9c22 fc3f
000002a0: 3815 9041 196a f63f 40b9 c9ec 8b35 f23f
000002b0: 602c 0f1d e21e f13f 20dd 03c7 a090 f73f
000002c0: c0b9 9073 9438 ed3f a845 633d 76cb f23f
000002d0: 38e9 0b82 7147 f33f 50c9 5e40 9168 ea3f
000002e0: 688f eefe 14ce f13f 40e8 8b39 119e ed3f
000002f0: f81a 5903 cfa8 f63f e087 e78b 9335 e93f
00000300: a064 4d20 6bcf f53f 5028 dfd3 947b f93f
00000310: 405f 8253 cc86 ed3f d853 a7b4 6897 f43f
00000320: 8897 cdec 837f f73f 98ed 9d51 914d f63f
00000330: a0a9 d9f0 2bcd f63f e0ec 2591 b5ab f23f
00000340: 58c3 ae85 19ad f63f 684e 7aa0 e52f fd3f
00000350: 5012 e200 a679 f93f f06c a242 c51c f53f
00000360: 508b 73da 936a f03f 8819 cfbd bc44 f43f
00000370: 0011 c39c 3e3b f93f f8eb aefd 5eb6 f13f
00000380: 5873 7bf6 2040 f53f a00b 3b36 7d99 f23f
00000390: 5073 1b0e aa6f fc3f a46f f47b 2d62 ff3f
000003a0: 0049 2aaa f804 f23f 9877 7874 1011 f33f
000003b0: 60bf 8ba9 0d14 f73f 1040 2129 e364 fc3f
000003c0: 649f c447 a6cb fa3f d0a5 745d e9b2 fc3f
000003d0: 6c86 0790 e024 f83f 5050 eba8 e2f5 fc3f
000003e0: a013 9b42 790e f63f 5c32 fa79 bda1 f93f
000003f0: 70fb 285e 847a ef3f 407f 1622 6567 f53f
00000400: 6001 b7f3 4464 f73f a0b6 883e e1b5 f63f
00000410: 9011 4308 e3df fa3f 606a 09ce b1c2 f43f
00000420: 98a9 9e86 0306 f53f 20c5 fed3 e5c1 f43f
00000430: 60d0 5884 b722 f43f f07b 412b 9e6a f33f
00000440: f098 8e9f e75d f13f 308f 2a26 3046 f03f
00000450: d0bb a1ef 484a f43f 7042 9c8a 6fe7 f13f
00000460: a4f9 1e94 268d f33f 001a 6ab4 74ac f53f
00000470: e09f 9f26 41d4 f23f 0009 4551 2a77 ea3f
00000480: 601b 8d0e 9b17 f83f 5017 499f cd47 fd3f
00000490: 4082 4d5f 1fd5 f73f f447 80ab 5492 fa3f
000004a0: d021 f37d 1a1a fa3f 3815 cff2 1a78 fa3f
000004b0: 801e e9a2 e9e0 f83f 20c5 3cd2 7aef fa3f
000004c0: 7815 1a9c 0f7f fa3f 0031 d93b fb00 ed3f
000004d0: fc44 1c31 009d f93f 1028 b7c5 1318 f73f
000004e0: 204b 943b 3248 f93f 0029 7611 5525 0240
000004f0: 185a b4f3 7197 fb3f 10eb 1ebb 6d6c fd3f
00000500: 7094 1967 0d63 ff3f 5026 5ca5 cee5 f63f
00000510: 2846 93d3 7fdf f43f 6841 66a6 c0b5 fc3f
00000520: e006 e4f0 3f80 fa3f d0b6 6a79 0046 f43f
00000530: 401a 4264 1d83 ee3f 181c cd91 5ed4 f83f
00000540: 8813 5b4f 8a49 f33f 2021 8714 d645 0040
00000550: 400b bfdc 733c fa3f 307f 4367 4bd4 f03f
00000560: 8874 b596 9e29 f83f d861 b471 777b f93f
00000570: 3021 e315 66c9 f83f 146a 08a8 23c0 f73f
00000580: 6875 3a54 10c3 f33f 54ca 7f2a 6753 f43f
00000590: 80cb 24ff 0246 ea3f b80d facb c284 f63f
000005a0: 00c8 6eed e30a f83f 285b d891 cbd5 f83f
000005b0: 6809 a0ea eaf1 0140 983f 788e 8bb6 fb3f
000005c0: a842 2c81 f0ab f13f e097 4810 078f f53f
000005d0: 008f a298 c723 f63f 606e 1231 6d43 fb3f
000005e0: b8c5 3f7f cd83 f63f 78ca b107 40ca f73f
000005f0: 607b 077b 386a f83f d08c c6f0 ea1c f13f
00000600: 1000 413e 5a2a f73f 3cf0 d8e4 1e6c f43f
00000610: 40e8 e2d9 6e5f f23f b89f 1598 587c f43f
00000620: 1061 6e84 86ca f43f a563 cc36 bdb5 f53f
00000630: 402d 9bb4 7b00 f43f 20f7 d09a b591 eb3f
00000640: a082 dac7 b7f0 ef3f e01c 20b2 494a ee3f
00000650: a867 9a82 e8ee f63f 187a 1a8c 78af f53f
00000660: a033 bfd3 6c2e f23f 00b9 ee23 84be ea3f
00000670: 20ef d65e cbdb f23f 6017 9748 8f87 ee3f
00000680: a017 c95b 2342 e93f f0fa 557d 34fa f53f
00000690: 3823 4de5 623c f63f 0073 df09 6b58 f23f
000006a0: a03e 66c5 a5c6 ee3f 2088 068b a59f ee3f
000006b0: 10d4 f375 d5fa f73f a042 69ad 856d f23f
000006c0: f0af a15f dff2 f23f d0f0 934c bab8 f63f
000006d0: 5afa 76ad df1b f43f e8d9 5e52 4a5a fc3f
000006e0: e86d 22ac b532 f83f 0859 3959 029d 0240
000006f0: 90e7 acc7 570b f23f 8070 dd76 243f ff3f
00000700: 2051 fa82 a017 f43f 50ec fc40 999d f13f
00000710: b097 e98e c132 f63f 10b9 a27e b4e5 0040
00000720: 9052 2321 3266 f63f 4098 710a 05b5 fa3f
00000730: 6058 255d db0f f53f f49c e6d6 9a00 0040
00000740: 9822 f430 1f84 fd3f 802d a22e 9d61 f93f
00000750: e04a cfe9 a4ee f63f f062 6031 b75f f53f
00000760: 0888 e4c3 c366 fb3f a0e7 570c 03a1 fb3f
00000770: 904a b0c1 60ff fe3f 202f 505c 7837 ff3f
00000780: 00cf 0eff f42f fb3f d0b0 baf0 6de4 f73f
00000790: 382f d9e4 baeb fa3f 301c 4146 7adc f53f
000007a0: 909f bfcc 4d13 f33f 9002 d979 874c f53f
000007b0: 9001 dd77 5726 fa3f b08a eb21 67fb fa3f
000007c0: 6003 3207 36d8 f53f 8084 9177 a5ea f33f
000007d0: b050 62e2 ff0d 0040 d0eb a06c 2267 0040
000007e0: f0eb 0ba6 7e80 fb3f d03a 0893 a548 f83f
000007f0: f0d9 8d54 a982 f63f 905a 8c0d 92a9 f73f
